livekit-plugins/livekit-plugins-ten/livekit/plugins/ten/ten_vad_src/src/onnx_model/ten-vad.onnx (onnx, 315449 bytes, 18 tensors)

const_fold_opt__178 f4 [1, 1, 3, 3]
000000 2c 7f a9 3e d5 ee 9b 3d 5c 42 83 3e 85 29 75 3e
       0.33104837 0.07613913 0.25636566 0.2394162
000010 99 0d 95 be 2b 75 97 3e 30 0b 82 be 9e 49 78 bf
       -0.29111937 0.2958158 -0.2539916 -0.9698733
000020 ff 63 9a bd
       -0.07538604

StatefulPartitionedCall/vad_model/separable_conv2d/separable_conv2d/ReadVariableOp_1:0 f4 [16, 1, 1, 1]
000000 3c eb 06 bf cc 5e ef be 2e 2c 27 bf 3b 64 60 3f
       -0.5270269 -0.46752012 -0.6530179 0.8765294
000010 56 07 ad 3e 22 0f 13 bf b8 a0 93 3e 06 e8 23 bf
       0.3379466 -0.57444966 0.28833556 -0.64025915
000020 d1 4e 07 39 c6 8a 18 bf 1b 00 13 3f 45 3f 61 bf
       0.00012903965 -0.5958675 0.57422036 -0.87987167
000030 b6 be da be f6 6a c6 be 74 76 f3 be 70 03 61 3f
       -0.42723626 -0.3875348 -0.4755131 0.8789587

StatefulPartitionedCall/vad_model/separable_conv2d/BiasAdd/ReadVariableOp:0 f4 [16]
000000 8d 70 9c 3e 8b 5e 33 bd 9c 97 2e be 00 3e dc 3d
       0.3055462 -0.043791335 -0.17050022 0.10754013
000010 4c 8f 41 3e c9 24 af 3e c4 4d 5c 3e 5a c4 2e 3d
       0.1890232 0.34207752 0.2151404 0.042667724
000020 d8 75 f7 bb 5b 87 8f be 58 0e c7 3e 6d 49 80 3e
       -0.00755189 -0.28032956 0.3887813 0.2505602
000030 5c 86 ac be d4 12 3f 3e 38 83 06 be d9 55 e3 bd
       -0.33696258 0.18659526 -0.13135993 -0.111003585

const_fold_opt__179 f4 [16, 1, 1, 3]
000000 92 a8 5a be d5 67 bf be ff a0 3c be 07 bb 3b 3d
       -0.21353367 -0.37383905 -0.1842079 0.04583266
000010 e8 70 c3 bc 76 26 b6 3e db cf 6f 3e c2 ab 25 bf
       -0.023857549 0.35576218 0.23419134 -0.64715207
000020 95 96 c3 be 62 ea 95 be 9e 90 9c be 1d 96 41 be
       -0.38200822 -0.29280382 -0.30579084 -0.1890492
000030 06 63 53 3e f0 d4 98 3e aa d1 23 3e bf bd 50 3e
       0.20643243 0.29849958 0.15997949 0.20384882
000040 0b 77 07 3f cd c2 2b bd 29 67 6b bb 84 04 d5 3e
       0.5291602 -0.041933823 -0.0035919643 0.41605008
000050 3c db 9c 3c 7a c7 8a be 64 dc 73 be d9 7f 11 be
       0.019147508 -0.27105314 -0.23814541 -0.14208926
000060 e0 02 56 bc 64 1a 84 bc 72 46 fa bc 01 4d 68 3e
       -0.013062209 -0.016125865 -0.030551169 0.22685625
000070 90 7c 07 bf 88 c1 09 3f ba a0 9f 3e 8b 82 f5 3e
       -0.5292444 0.5381093 0.31177312 0.4795116
000080 e2 84 c9 3d e5 8e 2f be 87 51 10 bf 5a 86 e1 be
       0.098397985 -0.17144354 -0.563744 -0.44047815
000090 bc d5 40 3f 17 bd 13 3f 97 37 8a 3f 6d cd a4 bb
       0.7532613 0.57710403 1.0798215 -0.0050293715
0000a0 90 3b 87 be df 71 00 be ac c4 ae bd 0e 3e 3c bd
       -0.2641263 -0.12543438 -0.08533606 -0.045957617
0000b0 5b 18 ad 3e 07 a8 0b 3e c2 03 f1 3e 8d eb 62 3e
       0.33807644 0.13638316 0.4707318 0.22160168

StatefulPartitionedCall/vad_model/separable_conv1d/ExpandDims_2:0 f4 [16, 16, 1, 1]
000000 24 9e 66 be d5 08 50 be 7e 5f 1f 3e 3f f5 0a 3d
       -0.22521263 -0.20315869 0.15563771 0.03392529
000010 e3 ec 8e bf aa f1 63 39 c4 70 6a bf b7 5a c4 bb
       -1.1166042 0.00021738434 -0.91578317 -0.0059922594
000020 51 1e bc 3e 70 f8 ef bd c4 68 b2 bf 1c 37 e3 bc
       0.3674188 -0.117173076 -1.3938222 -0.02773624
000030 02 2f 20 be 55 3f d7 be 44 2a 02 be 8f 5e 7f 3f
       -0.15642932 -0.42040506 -0.12711436 0.9975366
000040 2a ce 95 be 23 3d c3 be e7 28 5f 3e 02 4d 40 bf
       -0.29258853 -0.3813258 0.21792947 -0.75117505
000050 dd a9 43 3e da 14 1d 3e e5 32 1e 3e 4c 23 84 3e
       0.19107766 0.15339985 0.15449102 0.2580818
000060 a8 39 88 bd 8d d7 3f 3e ea e1 35 3f 58 43 5f be
       -0.06651622 0.1873457 0.7104784 -0.21803033
000070 73 ad ce bc 2a 80 ce bd 2f 1f b7 be 73 2a 44 3f
       -0.025229191 -0.10083039 -0.3576598 0.7662727
000080 bb 90 69 3f ce 64 c2 bf ad fb 27 3f fd 00 a2 3b
       0.91236466 -1.5187013 0.656184 0.0049439655
000090 be aa 3b 3e d2 75 94 bf 86 0f c1 3e 43 52 b6 3f
       0.18326852 -1.1598456 0.37707156 1.4243854
0000a0 bc 5f 62 3e dc ea 62 3e 43 ca 6a 3e ab 6c 02 40
       0.22106832 0.22159904 0.22928719 2.0378826
0000b0 68 74 31 3f f8 0d 79 3f 31 f8 21 bf ad 46 a9 3e
       0.69318247 0.9728694 -0.63269335 0.33061734
0000c0 00 c4 cd 3f 30 03 c7 bf 58 f0 60 bd b1 42 0f bf
       1.607544 -1.5547848 -0.05491671 -0.5596114
0000d0 06 2e d0 bc e9 d1 09 c0 72 62 14 3e f8 9e 8c 3f
       -0.02541257 -2.153437 0.14490679 1.0986013
0000e0 cd cc d9 3e 14 cf 24 be 83 51 19 be 65 3e 0b 40
       0.42539063 -0.16094619 -0.149725 2.1756833
0000f0 ac 72 97 be 4c 0d d6 3f 56 11 a4 be ee 63 a6 3e
       -0.29579675 1.6722808 -0.32044476 0.32498115
000100 b0 b2 e4 bd c0 f4 10 3e 3c 12 92 3d d9 14 25 3e
       -0.111668944 0.14155865 0.07132384 0.16121234
000110 3e e3 0c be 7a 8b 70 bd 15 89 9c be da 22 a0 3e
       -0.13758561 -0.058726765 -0.30573335 0.3127659
000120 ef 24 be 3e 97 1a d3 be ac c6 65 3c f9 39 1f 3d
       0.37137553 -0.41231224 0.014024418 0.038873646
000130 1f a9 f6 be 7f db fc 3e 5b 06 32 3c b1 eb fb be
       -0.48175904 0.49386212 0.010865773 -0.49203256
000140 4c 7b 89 3f fc 92 e9 be 65 d0 ce 3e 75 09 e6 be
       1.0740752 -0.45619953 0.40393367 -0.4492909
000150 8a d7 33 3d e6 62 dc bf 3e b4 b1 3c 7d ff 58 3f
       0.043906726 -1.7217681 0.021692391 0.84764844
000160 03 64 b2 be 96 46 35 3d 82 4d c4 3e ad 26 90 3f
       -0.34841928 0.04425677 0.38340384 1.1261803
000170 c8 52 58 be d7 dd b3 3f 53 a2 02 bf da 7c 2e 3d
       -0.21125329 1.4052075 -0.5102894 0.042599536
000180 60 78 d1 3e 32 d4 36 bd f5 3b 83 bf d0 4f 26 bf
       0.4091215 -0.04463596 -1.0252672 -0.64965534
000190 de 6a 3f 3f e4 18 03 bf a5 cc 10 3f 6b d8 ad 3e
       0.7477244 -0.51209855 0.5656226 0.33954176
0001a0 af 1d d0 bd b0 ce 64 bf 89 32 76 3f e8 75 cd be
       -0.10161912 -0.8937788 0.9617086 -0.40129018
0001b0 96 e5 12 3f 27 a3 01 bd ce cf bc 3e 32 58 9e 3e
       0.5738157 -0.031649735 0.36877292 0.30926663
0001c0 e3 0c 34 be 8e 26 38 3f 8d 19 87 be 5c bc 66 bd
       -0.17583041 0.7193383 -0.2638668 -0.056331977
0001d0 d8 88 a2 3e f5 0b 75 3e 88 22 2c be 5f ab f7 bc
       0.31745028 0.23930342 -0.16810048 -0.030233083
0001e0 68 ac 34 bd 8d 5c 93 3f d2 b9 a6 be f3 e5 89 be
       -0.044109732 1.1512619 -0.32563645 -0.2693325
0001f0 14 56 c3 bb 88 ff 9d bd 07 b9 8d 3e 6a fd ab 3e
       -0.005961189 -0.07714754 0.27680227 0.33591777
000200 49 51 6d be 08 39 a6 3e 69 4c 3a bf 7b af e8 bd
       -0.23175539 0.32465386 -0.7277284 -0.11361595
000210 9d 60 80 3d d9 7b 79 3e 85 fb f0 3e 8d ba 8f be
       0.062684275 0.2436365 0.47066894 -0.28072014
000220 1b 02 4e be ec c7 01 3f 53 c5 e7 3d 4a e9 55 bf
       -0.2011799 0.5069568 0.113169335 -0.83559096
000230 6d 0a a5 3f aa cc be be 7c 8f c5 3e 49 d5 56 3e
       1.2893807 -0.3726552 0.38586032 0.209798
000240 ad be 95 3f 6a fd b4 3d 1b 45 a0 3e 82 f7 a9 be
       1.1698815 0.088373974 0.31302723 -0.33196646
000250 53 f2 79 be f4 ae b0 bf 82 cd 83 3e cf 9b c6 bd
       -0.24408846 -1.3803391 0.25742728 -0.09697687
000260 d8 ab be be cf 20 4c 3e 58 ff 49 bc dd c9 90 3f
       -0.3724048 0.1993439 -0.012328945 1.1311604
000270 57 94 2b 3f 2d 44 3f 3f 28 da 10 3e 64 3e 08 3e
       0.67023224 0.74713403 0.1414572 0.1330505
000280 ce 19 95 be 46 13 ec 3e 30 49 79 bf 7b 3a b5 3e
       -0.2912125 0.46108454 -0.973773 0.3539618
000290 03 75 cd be ca 85 1e 3f 12 a9 43 bf 0f 01 02 bf
       -0.40128335 0.61922896 -0.76429856 -0.50782865
0002a0 31 21 8c 3e c6 11 b8 be 3a 9c 81 be 2d b5 42 bf
       0.27369073 -0.3595106 -0.25314504 -0.760577
0002b0 41 bd 24 3f c8 b2 72 be c7 f0 a8 3e 43 55 ad 3e
       0.6435128 -0.23701012 0.329962 0.33854112
0002c0 65 01 9d be b7 9d a8 be e4 1f 2d 3e a0 ac 0c 3f
       -0.30665126 -0.32932827 0.16906697 0.54950905
0002d0 8c 99 2a bf 05 ac 23 3e 87 ff 0b bf 6a dc 9b 3e
       -0.66640544 0.15983589 -0.5468678 0.304416
0002e0 e1 5e 7b bc 77 91 f6 bd ba 8b 48 bf f9 48 9c 3d
       -0.015342445 -0.12039464 -0.78338206 0.07631106
0002f0 3e 0a ae 3d 2b 80 90 be 20 40 b2 be 67 5b 79 3e
       0.08498047 -0.28222784 -0.34814548 0.24351273
000300 af 5e df be f5 15 3b be ab 83 29 bf b0 e0 93 be
       -0.43626925 -0.18270095 -0.66216534 -0.2888236
000310 f3 5e be bf 85 5e 90 3f 75 49 b1 bf f9 c4 8c bf
       -1.4872726 1.1278845 -1.3850542 -1.0997611
000320 01 57 a3 be 63 d4 97 bf da 2c c2 bf 6c bb 51 bf
       -0.31902316 -1.186169 -1.5169938 -0.8192661
000330 c0 ec 2d 3f cd 40 0d bf 42 c2 80 be 04 34 1d 3f
       0.67939377 -0.55177003 -0.25148207 0.61407495
000340 8d 8c c6 3e 40 2e a9 bf f5 3a 5c bf 40 b2 17 3e
       0.38779107 -1.3217239 -0.8602746 0.1481409
000350 b8 85 22 3e 0c 0d 00 be 5f e6 c7 be 17 1e 73 3f
       0.15871322 -0.12504977 -0.39042947 0.9496779
000360 0f 7f 4c be de 40 71 3e 27 f0 9e 3e 3b 35 9b 3e
       -0.19970344 0.23559901 0.31042597 0.3031405
000370 bf 24 7c be 9d 8b 28 3e a1 64 92 bf 50 ed 0b bf
       -0.24623393 0.16459508 -1.143696 -0.54658985
000380 26 2f 02 3e 40 54 cf bd 28 c9 ab bd 1f 3c eb 3e
       0.12713298 -0.10123491 -0.08387977 0.45944306
000390 82 50 99 be c5 a3 c4 bc 05 ec 87 3e 71 f3 a1 3e
       -0.29944235 -0.024003873 0.26547256 0.31631044
0003a0 24 e8 80 3e c5 a8 f7 be 64 92 d1 bd 5a 28 b5 3e
       0.2517711 -0.48370948 -0.10233 0.35382348
0003b0 05 44 2b be 44 9f d6 bd 8e 36 38 bd 39 86 a9 bd
       -0.16725166 -0.10479596 -0.044973902 -0.08277554
0003c0 8d 69 03 40 f7 76 26 bf 7c bf 34 be ed 6e b9 be
       2.0533173 -0.65025276 -0.1765117 -0.36217442
0003d0 51 a6 45 3e 13 72 12 c0 bf f5 58 3e 68 d1 1d 3e
       0.19301726 -2.2882125 0.21187495 0.15411913
0003e0 e9 bb 08 be cd c1 ff 3e 5f ea eb bd 78 9f 70 3f
       -0.13352932 0.49952546 -0.11519312 0.9399333
0003f0 5b 42 9e be cf 2d 06 40 8d 6e 1d bf 62 65 ef 3e
       -0.3091 2.096546 -0.6149681 0.46757036

StatefulPartitionedCall/vad_model/separable_conv1d/BiasAdd/ReadVariableOp:0 f4 [16]
000000 61 d7 c2 3e 81 a6 72 be 51 c7 0e 3e 48 91 86 3d
       0.38054946 -0.23696329 0.1394322 0.06570679
000010 f8 96 fc 3e 25 cb 5e 3e 98 1f 5a bd 64 73 20 bd
       0.4933393 0.21757181 -0.053252786 -0.039172545
000020 70 01 90 be 0d 5a 13 3e ee f3 f6 3d 38 c8 10 3f
       -0.28126097 0.1438982 0.12058245 0.5655551
000030 4a 4c 88 3f 34 90 b6 3e b3 a1 ff 3e 47 57 8a be
       1.0648282 0.35656893 0.49928054 -0.27019712

const_fold_opt__180 f4 [16, 1, 1, 3]
000000 ee 16 69 3f 6e 7f 18 3f 16 c0 66 be bd 24 9a be
       0.9105061 0.5956944 -0.22534212 -0.30106154
000010 31 55 95 be 1c ed dc bd d6 32 8f 3e f4 a1 43 3e
       -0.29166558 -0.107874125 0.27968472 0.19104749
000020 ee b6 b3 bb c0 c8 c0 be 64 c3 e3 be ff fc 92 be
       -0.0054844534 -0.3765316 -0.4448501 -0.28708646
000030 c4 3f 25 3e 1f e9 86 3e dd 2f 90 3e 9d 7e 02 3e
       0.16137606 0.26349732 0.28161517 0.12743612
000040 51 93 d5 be 7d 76 bc bd 52 1e b3 3e 48 c3 e7 be
       -0.41713956 -0.09202287 0.3498407 -0.45266175
000050 e6 17 d4 3d 5f 00 26 be 81 3a a2 3e 1a 2f 41 be
       0.10356121 -0.16211079 0.3168526 -0.18865624
000060 67 24 ca 3e 0d aa b2 3e dd 58 d9 3c cc 8b dd be
       0.39480898 0.34895363 0.026531631 -0.4327072
000070 ea 93 37 3e 75 ff 0d 3e 09 97 f3 be 4e 12 03 be
       0.17927518 0.1386698 -0.47576168 -0.12799951
000080 fc b4 b9 3e f5 4f 56 bf 23 b3 82 bd 29 24 9f be
       0.36270893 -0.83715755 -0.06381824 -0.31082276
000090 75 26 e8 be 78 7f e5 3e e8 37 25 bd a5 a1 f7 3d
       -0.4534184 0.44823813 -0.04033652 0.12091378
0000a0 12 6c ee 3e 2f 79 52 3e 67 84 d0 3e 3c a6 09 3f
       0.46566826 0.2055404 0.40726015 0.5376928
0000b0 14 63 7a 3e 2b ed f1 be f9 b5 33 bf 84 32 b9 3d
       0.24451858 -0.47251257 -0.70199543 0.09042838

StatefulPartitionedCall/vad_model/separable_conv1d_1/ExpandDims_2:0 f4 [16, 16, 1, 1]
000000 07 33 96 bf 85 ad 6c 3e 34 57 d0 bd 61 89 50 bf
       -1.1734322 0.23113067 -0.10172883 -0.81459624
000010 f8 d6 ac 3e fe f1 16 bf 26 22 6f 3d 36 20 e4 be
       0.33757758 -0.58963 0.058382176 -0.44555825
000020 c2 43 78 3c d9 65 0d 3f cb df 0d be 00 b5 e8 3e
       0.0151528735 0.5523353 -0.13854901 0.45450592
000030 e6 0a 65 be c4 f7 27 be 3d 7b 28 3f 2b dc 85 bf
       -0.22367439 -0.16403109 0.65813047 -1.0457815
000040 97 11 e4 bd af 03 78 3e e2 45 0b bf 89 74 e2 3e
       -0.111361675 0.24220155 -0.5440351 0.44229534
000050 f2 e6 07 3f 71 37 19 be 65 20 08 bf ff f2 e1 be
       0.5308677 -0.14962555 -0.5317443 -0.44130704
000060 55 44 b6 be 98 87 4d bc 69 78 2b 3f ec b5 1e bf
       -0.35599008 -0.012544535 0.66980606 -0.6199634
000070 d7 9c 3f bf 80 73 98 be a4 28 a6 bb 91 c0 0e 3f
       -0.74848694 -0.2977562 -0.0050707627 0.55762583
000080 2d 19 23 be b5 a7 1f be ca d2 3a 3e 9e 9d 40 bf
       -0.15927573 -0.15591319 0.18244472 -0.75240505
000090 02 42 d7 be df a3 6a 3e c2 f0 e3 be 18 cf 24 3f
       -0.42042547 0.22914074 -0.4451962 0.643785
0000a0 cf 98 28 be b2 68 f0 be 53 8a 61 3f 48 f1 05 bf
       -0.16464542 -0.46954876 0.8810169 -0.5232129
0000b0 7b ba a5 3f 1e 70 33 bf a5 0c 30 bd 67 32 7c bf
       1.2947534 -0.7009295 -0.04298081 -0.9851441
0000c0 e7 0f 9f 39 27 44 1e 3e 9f 0e 0c 3f 83 7b 39 3e
       0.0003033869 0.15455686 0.5470981 0.18113522
0000d0 35 a6 b7 3c 4b 2d b3 be 17 df 80 3f 87 f7 e3 bd
       0.02241812 -0.34995493 1.0068082 -0.111311965
0000e0 d9 26 93 3e 7a aa 17 3e 5a f9 48 bf 9a 7e fd 3e
       0.28740576 0.14811125 -0.7850548 0.49510652
0000f0 0c 32 33 bf 6c 0a f6 3d 3d 11 48 be d0 e0 00 3f
       -0.6999824 0.120137066 -0.19537826 0.50343037
000100 ee 28 28 3f e9 e3 05 3e 82 9a 81 bd de 73 12 bd
       0.65687454 0.13075222 -0.06328298 -0.03575503
000110 c9 1a c5 be ea 38 53 bf 5d ee 9a bf f5 fe 06 3d
       -0.38496998 -0.8250872 -1.2103993 0.03295799
000120 ef ea d7 be 4e bd 4b 3f e1 dc cc be 81 42 2e bf
       -0.42171428 0.7958573 -0.40012267 -0.68070227
000130 c9 f2 8c bf de cc 3d 3e 44 b1 88 be ec 4a ce 3d
       -1.1011592 0.18535182 -0.26697743 0.10072884
000140 9f d7 91 bd af 8b 27 3c 95 29 31 3e 09 3d b3 3e
       -0.071212046 0.010226174 0.17301019 0.35007504
000150 52 ca fc 3e e9 38 72 3f 47 96 8a 3f bd 30 f3 3e
       0.49373108 0.9461809 1.0827111 0.47498122
000160 08 ef be 3b d2 98 4b bf a3 bf 82 3e 52 7e 1c 3f
       0.0058268346 -0.7953006 0.25536832 0.6113025
000170 9b 42 2d 3f 7f 0f 17 bf df 29 cb be fd 3d 0c 3e
       0.67679757 -0.5900802 -0.39680383 0.13695522
000180 9f 44 31 3f d0 c2 db bd b5 44 28 3e a0 4e a9 3e
       0.6924533 -0.10730517 0.1643246 0.330678
000190 97 66 4c 3e 93 4c 1c be d9 c1 58 bf 9e d5 3f bf
       0.1996101 -0.15263586 -0.8467079 -0.7493533
0001a0 46 28 30 bf 1a d9 4e be fa df 33 3f f2 02 04 be
       -0.6881145 -0.20200005 0.70263636 -0.12891749
0001b0 ea 3a 7b bf 39 04 8d be 9a 97 f1 bd c6 d3 8c 3f
       -0.9813677 -0.27542284 -0.11796494 1.1002128
0001c0 1c 70 74 3e ef 20 fd 3e 1b 1d 04 3f 6b 82 d3 be
       0.23870891 0.4943919 0.5160691 -0.4131044
0001d0 3e 28 27 3f 93 ce b4 be 1d ab 35 3e 56 01 b3 3e
       0.6529578 -0.35313854 0.17741056 0.34961957
0001e0 d0 76 0f bf ad f9 32 be f0 58 9a 3e e9 3d 6f bf
       -0.5604067 -0.17478056 0.3014598 -0.9345384
0001f0 28 3e de 3d b2 ba 3f 3f cc 6c 4c 3f 7f 19 ed 3d
       0.10851699 0.7489425 0.7985351 0.115771286
000200 37 22 26 3f 20 4d ff 3e 7c 62 d4 3e 4f 36 51 bf
       0.6489596 0.4986353 0.41481388 -0.81723493
000210 bf 28 0f 3e fc c4 99 bd 70 c7 e7 3e a1 50 85 3d
       0.13980387 -0.07508275 0.45269346 0.06509519
000220 09 34 9a be e0 b9 f8 be e1 5e 2e 3d d5 a2 73 bf
       -0.30117825 -0.4857931 0.042570952 -0.95170337
000230 6b e4 eb 3d bf a2 81 be 0d 92 9f 3e 4a 88 39 bd
       0.11518177 -0.25319478 0.31166115 -0.04529599
000240 dc b6 36 bf 97 bd 98 3e 0e d1 24 3f 4e 98 c6 3d
       -0.7137277 0.29832146 0.6438149 0.096970186
000250 70 97 1a 3f ff 45 ab be e3 67 cd bd ff 69 41 be
       0.60387325 -0.3345184 -0.100295804 -0.1888809
000260 a9 39 49 bf be 49 21 bf 5a 9c 6c 3f 76 fd f9 be
       -0.7860361 -0.63003147 0.92426074 -0.48826188
000270 b2 29 0f bf 06 ef 33 3f ef 9e 87 3f fb 5b 02 3f
       -0.55922997 0.70286596 1.0595378 0.509216
000280 d5 64 1d 3f e3 d6 ea 3d b8 c9 d8 3e 95 bb eb bd
       0.6148198 0.11466768 0.423414 -0.11510388
000290 4b d7 70 bf 5d 51 30 3f ac 41 11 3f df fc 0a bc
       -0.9407851 0.6887415 0.5674083 -0.008483141
0002a0 93 b9 bb 3e a1 ab 11 bf a5 96 42 be c8 7e 09 3f
       0.3666502 -0.5690251 -0.19002779 0.5370908
0002b0 53 8b 20 3f 52 c9 1a 3f 4f d4 03 bf ae 7e c2 3d
       0.6271259 0.6046344 -0.5149583 0.094968185
0002c0 ef 32 9d bf 4a 8a 53 3c 57 46 24 3f a3 ce ce be
       -1.2281169 0.012911389 0.6416983 -0.40392026
0002d0 fe b7 9c 3e d0 54 0b bf d5 a4 a7 be cb 1f 53 3d
       0.30609125 -0.5442629 -0.32742944 0.051543992
0002e0 99 01 df be a2 c6 18 be ca 22 a0 3f b4 07 f0 3d
       -0.43555906 -0.14919522 1.2510617 0.11720219
0002f0 4f 32 aa 3e c7 35 df 3e bc bf 2a 3f 79 1e ad bd
       0.33241507 0.43595716 0.66698813 -0.08453078
000300 b7 a7 64 3e c2 0e e4 bd 2a 0f 3e be 66 90 59 bd
       0.22329603 -0.11135627 -0.18560472 -0.053116225
000310 30 5e 13 bf ae 94 ac 3d 50 e7 b8 be e3 0f 10 bd
       -0.57565594 0.08426796 -0.36113977 -0.0351714
000320 ca dc 0e 3f 1f fd 18 3e 2d f3 2d bf 18 40 99 bd
       0.5580565 0.14940308 -0.6794918 -0.07482928
000330 d1 e0 2e 3f e7 76 1a bc 80 e6 be be db 7a 85 3f
       0.6831179 -0.009427763 -0.37285233 1.0428118
000340 eb dd d9 be 32 46 59 bf 23 c2 47 3d 3f 13 fb 3e
       -0.42552122 -0.84872735 0.048769128 0.4903812
000350 29 d9 4e be 49 03 f5 3e aa 6f 28 bf b6 8a 14 be
       -0.20200028 0.4785407 -0.65795386 -0.14506039
000360 2e 60 7a 3e 70 19 30 be 69 7b fe 3e ea 95 89 3e
       0.24450752 -0.17197204 0.4970353 0.26872188
000370 10 68 d4 be f5 31 46 bf 9d 14 85 bf 92 ab 88 be
       -0.41485643 -0.7741998 -1.0396916 -0.26693398
000380 84 78 bf bf dc 14 33 bf 88 e0 38 be 88 01 1f 3f
       -1.4958653 -0.69953704 -0.18054402 0.6211171
000390 25 58 10 bf 2c a6 d1 3e b0 f6 90 be 96 25 14 be
       -0.563845 0.40947092 -0.28313208 -0.14467463
0003a0 74 e2 c8 3e ec 03 11 be ab f0 86 be 74 b0 9e 3f
       0.3923527 -0.14161652 -0.2635549 1.2397599
0003b0 ec c3 b8 3d b8 a3 69 3d 46 8d 7c bf c2 00 18 3f
       0.09021744 0.0570409 -0.98653066 0.59376156
0003c0 d7 1e 68 bf 5b 42 ca be 1c e9 ab 3e 84 10 84 be
       -0.9067206 -0.3950375 0.33576286 -0.2579385
0003d0 33 e2 aa 3d e0 1c cd be f0 97 02 3e c1 e0 fd bb
       0.08343925 -0.40061092 0.12753272 -0.00774774
0003e0 2e 50 0b bf bc e3 e2 bd 6d 60 94 bd 23 f4 ef 3d
       -0.5441922 -0.11078593 -0.07244954 0.11716487
0003f0 d1 41 d6 3d b9 8e b8 3e 8f 16 54 3e 73 59 8c 3e
       0.10461772 0.3604639 0.2071173 0.27411994

StatefulPartitionedCall/vad_model/separable_conv1d_1/BiasAdd/ReadVariableOp:0 f4 [16]
000000 a3 62 b4 3d 15 52 44 3e f7 8b da 3d 2c ec 15 be
       0.08807876 0.19171937 0.106712274 -0.14640874
000010 43 1e 0f be d7 ed b4 3e a0 f7 ad 3d ea 23 41 3e
       -0.13976388 0.35337707 0.08494496 0.18861356
000020 2d a8 1e 3e 74 f5 07 3e c9 7c 0d be ec ca 46 3e
       0.15493841 0.13277227 -0.13817133 0.19413346
000030 0f 54 28 be 3a b1 fc 3d 14 98 9a bd ac 10 d9 3d
       -0.16438316 0.12338491 -0.07548538 0.10598883

W0__70 f4 [1, 256, 80]
000000 97 36 f9 3e b0 e9 f2 3e b7 24 17 bf d2 23 da 3e
       0.4867446 0.47443914 -0.590404 0.42605454
000010 b3 b2 cc 3e 39 ae 50 bf e6 57 fe 3e ba df f2 3e
       0.39980087 -0.8151584 0.49676436 0.47436315
000020 35 69 2c 3f 50 31 1a 3f 9a 35 31 bf a8 0d 5a bc
       0.67348033 0.60231495 -0.69222414 -0.01330892
000030 7a 05 32 bf 30 29 87 be 4f 51 ff be 1f 6a f5 3d
       -0.69539607 -0.2639861 -0.4986672 0.119831316
000040 6a c0 ff bd 8c 23 23 be a9 c5 d3 3e d3 e0 28 bf
       -0.12487872 -0.15931529 0.4136174 -0.65968055
000050 67 73 89 3d 9a dd bc 3d eb ec 8a be 96 b5 f2 3d
       0.067114644 0.09221955 -0.2713388 0.11851041
000060 39 04 fe 3e 06 30 e1 be f5 74 f0 be 13 ae 4b bd
       0.49612597 -0.4398195 -0.4696423 -0.049726557
000070 de c7 f8 be 83 c2 ed be 05 a8 00 bf 94 9d af bc
       -0.48589987 -0.46437463 -0.5025638 -0.021437444
000080 5a 98 8d 3d 2f 55 81 be 17 31 0d 3f 6f 52 11 bf
       0.069138244 -0.25260302 0.5515303 -0.5676641
000090 c8 77 89 3d 86 95 d2 bc 51 2f d4 3c 39 22 17 3d
       0.067122996 -0.025706064 0.025901468 0.03689787
0000a0 81 0d 5a 3d 9a 77 b5 bd e5 76 12 be 6a 69 ec 3d
       0.053235535 -0.08860703 -0.14303167 0.11543544
0000b0 f1 22 cb be 65 34 b8 3e ec e9 8a 3e 68 98 1c 3e
       -0.39675096 0.35977474 0.27131593 0.15292513
0000c0 84 a9 9d 3d 29 71 2e be 40 a0 03 bd 10 95 6a be
       0.07698348 -0.17035355 -0.03213525 -0.22908425
0000d0 99 77 6d be d7 11 b5 be 9e f1 97 be dd f3 3e bf
       -0.23190154 -0.35365173 -0.29676527 -0.74590856
0000e0 c5 e2 17 bf 24 c4 18 bf 3d 61 0f bf d5 d6 f1 be
       -0.593304 -0.59674287 -0.5600775 -0.47234216
0000f0 a1 ae ae be 0b 30 4c 3f fe 77 3d 3f cc d3 28 be
       -0.34117606 0.7976081 0.7401122 -0.16487044
000100 ac 7a 5d 3d e2 aa 75 be 24 b8 32 be 25 3d ce bd
       0.054072067 -0.23990968 -0.17453057 -0.10070256
000110 5d 00 2b be 15 34 8e be a7 e9 7b be ac 27 7e be
       -0.16699357 -0.2777411 -0.2460085 -0.24819821
000120 8f 09 d5 be 64 6c 4d 3d 83 11 3f 3d d2 48 aa be
       -0.41608855 0.050152197 0.04664756 -0.33258682
000130 f6 e8 8a bd 86 3d 07 bd ea 70 0f 3d cf 78 d0 bd
       -0.06782715 -0.033017658 0.035019793 -0.101792924
000140 b6 c8 f4 be 8b 63 82 be f6 29 d9 be 5c 2d 9a 3d
       -0.4780938 -0.2546657 -0.42414826 0.07528183
000150 fe f7 65 3e 77 aa 75 be cf 6e 4a bd 9e 58 0b bf
       0.22457883 -0.23990808 -0.04942208 -0.54432094
000160 0b 91 b7 be 20 7d b8 be b2 55 e7 be 6e 5f b8 be
       -0.35852847 -0.36032963 -0.45182568 -0.36010307
000170 22 8f 40 be 33 38 94 3e 4b 8e 86 3e 2d d6 d5 bd
       -0.18804601 0.28949127 0.26280436 -0.104412414
000180 9f dd d9 be 44 4c a4 be b6 d5 02 bf 36 5d c3 be
       -0.42551896 -0.32089436 -0.51107347 -0.38157052
000190 4b 73 70 be bd 8b bf 3d 22 78 65 bf 0a 06 9d be
       -0.23481481 0.09352825 -0.89636433 -0.3066867
0001a0 1d 92 03 be 1a f9 06 bf d4 9e f0 bd 5d 3a b1 be
       -0.12848707 -0.5272385 -0.11749044 -0.3461484
0001b0 1e 4b 68 be 34 13 81 bd 08 9e 86 ba c1 f2 8f be
       -0.22684905 -0.06302491 -0.0010270486 -0.28114894
0001c0 bc 0b 9a 3e 74 97 17 be ad 7f 01 3e 91 6b b7 3d
       0.30087078 -0.14803869 0.1264636 0.089560635
0001d0 4a 58 0e 3d a7 5f 89 be 3d 73 49 3e 6b 3b ab be
       0.034752168 -0.2683079 0.19672866 -0.3344377
0001e0 80 74 7a be a5 6e c6 bd 7e 5e 03 3d 38 a2 29 be
       -0.24458504 -0.096890725 0.032072537 -0.16565788
0001f0 3f 5c 89 bd 3e 7e 99 bd fa e3 d1 bd 8c b2 c8 3c
       -0.06707048 -0.07494782 -0.10248561 0.0244992
000200 63 ff cd 3e fb 07 15 3d 6c ff 88 3e e2 25 46 3e
       0.40233907 0.036384564 0.2675737 0.19350389
000210 61 72 b2 3e 13 97 25 be 5a 90 c0 3e 17 2a 8c be
       0.3485289 -0.16170911 0.37610132 -0.27375862
000220 75 21 ab be 9f 9a 34 3e 0d 3d 2a 3f e9 83 16 3e
       -0.33423963 0.17637108 0.66499406 0.14698757
000230 2d d3 d1 bd 65 02 40 be 4b be 0a bf c5 f0 03 3f
       -0.10245357 -0.18750913 -0.54196614 0.5153926
000240 cf 6b ea 3e 85 bd 2c 3e 87 c1 45 3f 75 02 37 be
       0.45785376 0.16869171 0.77248424 -0.17872031
000250 df 51 fc bd 35 9f f2 3d a4 c5 78 3e 31 84 5e bd
       -0.12320303 0.118467726 0.24294144 -0.054325286
000260 35 47 d2 be 62 02 28 3f c4 1c ae 3d e4 f2 0c 3f
       -0.41069952 0.65628636 0.0850158 0.5505812
000270 c4 e8 a6 be 17 63 21 3f 86 8c 89 3e 6c 6d 42 3f
       -0.3259946 0.63041824 0.26865023 0.75948215
000280 10 79 51 bf 05 a2 de be 22 fd 58 be 07 93 2f 3e
       -0.8182535 -0.43482986 -0.21190313 0.1714593
000290 90 6c 10 3d 83 3a cc be 66 1f 05 bf 4b 0e e8 be
       0.035259783 -0.3988839 -0.52001035 -0.45323405
0002a0 63 e1 e2 3d d3 17 61 bf 7b 7f 9e be a0 c6 f4 be
       0.11078145 -0.8792698 -0.30956635 -0.4780779
0002b0 7c 56 4e 3c c7 11 f2 be 0a a8 03 bf a9 8e 7a bf
       0.012593862 -0.47279188 -0.5142828 -0.9787393
0002c0 97 5a 4f bf 4e 9f 93 be 00 e9 77 be 9a 82 06 3d
       -0.80997604 -0.28832477 -0.24209976 0.032839395
0002d0 9c 74 ab 3e 36 70 dc be 10 9a 95 be 90 30 c9 be
       0.33487403 -0.4305436 -0.29219103 -0.39294863
0002e0 6c 85 53 b9 c3 99 16 bf 79 a0 59 bd 2e 7f 61 be
       -0.00020172232 -0.5882837 -0.053131554 -0.22021171
0002f0 68 3f fb bb 5a c1 d3 be 96 f2 af be cd 90 35 bf
       -0.0076674707 -0.41358453 -0.34364766 -0.70924073
000300 b7 34 54 bf 54 6a fc be e3 08 5a 3e 55 76 f7 3d
       -0.82892936 -0.49299872 0.21292453 0.12083117
000310 e6 4b 1a 3f 4f a8 bb be 9a e1 c9 be de a2 f8 be
       0.6027206 -0.36651847 -0.39429933 -0.48561758
000320 80 87 9d 3d 65 d5 1f bf b5 58 90 3c 55 f3 14 bf
       0.0769186 -0.6243499 0.017620424 -0.58183795
000330 76 1f f9 3d 24 d9 cc be c9 96 a5 be 14 b7 1e bf
       0.12164204 -0.40009415 -0.32341602 -0.61998105
000340 1d 95 33 bf b3 6e 3a bf e0 e4 84 bd 08 e5 17 3e
       -0.70149404 -0.72825164 -0.06488967 0.14833462
000350 e9 83 ea 3e 58 aa 18 bf 80 1f 81 be 97 94 3f bf
       0.45803764 -0.59634924 -0.25219345 -0.74836105
000360 b0 29 fc 3d 65 23 2c bf 36 b0 be bc d7 2e b2 be
       0.12312639 -0.6724151 -0.023277383 -0.3480136
000370 ae 84 5e 3e 70 6b 9e be 4e 93 c9 be 34 62 d7 be
       0.21730301 -0.30941343 -0.39370197 -0.4206711
000380 c1 dc 87 be 20 7b ab be af db ab 3d 3c 05 2d 3d
       -0.2653561 -0.33492374 0.08391511 0.04224132
000390 58 25 3f 3d 9c 76 a9 bf e0 b5 94 be ef 89 2c bf
       0.046666473 -1.3239322 -0.2904501 -0.6739797
0003a0 84 6c bf 3d 00 5c 00 bf 39 9d 03 3e 56 d7 aa 3d
       0.093468696 -0.5014038 0.12852944 0.08341853
0003b0 ee 2d c9 bd 9f 2f 94 3d 86 56 82 be 90 c4 2e be
       -0.098232135 0.072356455 -0.25456637 -0.1706717
0003c0 bd 0c 3e bd b6 35 10 be fa b5 b1 bd f3 5c 47 bf
       -0.046398867 -0.14082989 -0.086772874 -0.77876204
0003d0 75 2c 8e be 99 27 0e bf 0d cf 02 3e 7b 3f ff 3d
       -0.27768293 -0.5552917 0.12774296 0.1246328
0003e0 31 24 61 3c e8 9c 07 3e a2 05 40 be e1 ea 76 3d
       0.013741539 0.13243449 -0.18752149 0.06028259
0003f0 b0 27 32 bf 20 6f d8 be c6 c0 8f be 62 a5 8d bd
       -0.6959181 -0.42272282 -0.28076762 -0.0691631

R0__71 f4 [1, 256, 64]
000000 31 30 76 3c 4e ff 8a 3e 54 21 d0 3e bb 17 3e bd
       0.015026138 0.27147907 0.40650427 -0.04640935
000010 11 3a dd 3e a8 0b 44 be 48 d1 b9 be de 23 bd bd
       0.43208364 -0.19145072 -0.3629248 -0.09235357
000020 c1 de 32 3f 5a 05 ec 3e be d3 2b bf 0f c1 8f 3e
       0.69871145 0.46097833 -0.6711997 0.2807698
000030 fa 50 08 bf c5 5a 85 be 32 e0 cd bd 63 d0 5f be
       -0.5324856 -0.26045814 -0.100525275 -0.21856837
000040 3a db 6e be cf ce f3 3e 18 23 04 be f4 97 44 3f
       -0.23325816 0.4761872 -0.12904012 0.7679436
000050 f9 2e 26 3e b4 88 43 3e cf 2c bf 3d f1 8a d5 bd
       0.16228856 0.19095117 0.093347184 -0.104268916
000060 cd b1 a7 bd 72 e7 2b bf 0f 7f 95 be ce 25 67 3e
       -0.0818821 -0.6715003 -0.291985 0.22573015
000070 c5 fb 1d 3e 41 90 6d 3e e5 45 2e bd 19 1b 39 be
       0.15428074 0.2319956 -0.042547125 -0.18076743
000080 8d 2d e2 be 25 37 b8 bd f0 62 9e bd ef d1 5b be
       -0.44175377 -0.08994893 -0.077337146 -0.21466802
000090 17 2d e9 bc 94 1c 18 bf 29 fb 1f be 34 5b 01 3e
       -0.028463883 -0.59418607 -0.15623154 0.12632447
0000a0 28 a2 50 3e 4d 34 38 be 6b 7c 24 bf ae 72 0f 3e
       0.20374358 -0.17988701 -0.64252347 0.1400859
0000b0 99 2f 40 3d 6a 33 2c 3d 4c 9c e2 3c a1 64 f2 3e
       0.046920393 0.04204122 0.027662419 0.473424
0000c0 a2 35 c0 3d 2a 8e 98 bb ec b9 4e 3d 3d a8 40 3e
       0.0938523 -0.004655619 0.050470278 0.18814178
0000d0 80 ae e2 3d 81 d2 6c bd 1e 8a 09 be 05 c0 85 3e
       0.110684395 -0.05781794 -0.13431594 0.26123062
0000e0 4e ca ae be ba 07 23 3d db d2 00 bd a5 4d 35 3d
       -0.3413872 0.03980229 -0.031451087 0.0442635
0000f0 04 4f 19 be c9 26 4b 3f 1b a3 c0 be 0b cd 36 3f
       -0.14971548 0.79356056 -0.3762444 0.7140662
000100 cd 32 11 3e 69 0d d2 3e 48 a3 99 3e 2f 8e 15 3e
       0.14179535 0.41025856 0.30007386 0.1460502
000110 fb 57 0a be ba 11 1d bf 6e f9 18 bf 1c 6a bb be
       -0.13510124 -0.61355174 -0.597556 -0.36604393
000120 92 e3 5e be 70 48 28 3c 4e 6e c2 3e eb 77 12 3d
       -0.21766499 0.010271177 0.3797478 0.035758894
000130 5a dd 9b 3e 3f 3a 2b be 3d 55 a8 3e 84 8b fe bc
       0.30442315 -0.16721438 0.32877532 -0.031072386
000140 92 a6 4e 3f df e4 96 3d 10 03 54 bd 1c b6 ae 3e
       0.80722916 0.073678724 -0.051760733 0.34123313
000150 b6 56 18 3d 8b e3 7a bc 4c 32 e0 be 82 66 1f bf
       0.03719207 -0.0153130395 -0.43788373 -0.6226579
000160 97 f6 c5 3e fb d8 55 3e 90 0f 00 3f d0 25 c2 3e
       0.38664696 0.20883553 0.50023746 0.37919474
000170 d6 f1 28 bf 45 5c a2 be f5 2a c5 3c 07 b8 a8 bd
       -0.6599401 -0.3171102 0.024068335 -0.082382254
000180 9e 64 79 bc 25 f4 df be 5d e5 90 bd 0d fb 99 3d
       -0.015221743 -0.43740955 -0.070749976 0.07518587
000190 ec d0 85 be 13 58 de bd d0 18 91 bd 2b f7 fa 3d
       -0.26135957 -0.108566426 -0.07084811 0.12254175
0001a0 62 0a e8 bd 25 4f 9c bc 17 b2 8b be d0 21 3a 3e
       -0.11330105 -0.019080708 -0.2728431 0.18176961
0001b0 51 ac c1 be 71 66 d0 be f6 87 a7 3e a9 3f 3a 3d
       -0.3782678 -0.40703157 0.32720917 0.045470867
0001c0 9e 35 b0 3d 62 31 60 3e 87 31 12 bf 1e 00 b6 bd
       0.08603977 0.21893838 -0.5710682 -0.08886741
0001d0 2a 0b d6 3d e9 87 2b 3e 78 5a f3 3e 1c fd 88 be
       0.10451348 0.16751064 0.4752996 -0.26755607
0001e0 da 46 6a be 54 4c 93 be c3 21 64 3f 56 db 01 bf
       -0.2287859 -0.2876917 0.89114016 -0.50725305
0001f0 19 79 94 3c 7f ed ac 3e ac e2 b7 be eb 1a 7f ba
       0.01812415 0.33774945 -0.35915124 -0.0009731489
000200 16 e6 8a be da 0f 9d 3e 97 90 a6 3f 9b 4b 98 be
       -0.27128667 0.30676156 1.3012875 -0.29745182
000210 76 fd 06 3f 99 21 9b 3d b4 87 86 3d 99 66 fa 3d
       0.527305 0.075747676 0.06568852 0.122266
000220 b0 88 cf be 18 54 92 3f 07 17 20 be a2 43 78 be
       -0.40533972 1.1431913 -0.15633784 -0.2424455
000230 73 91 93 be 5f e7 e9 3e 16 c1 07 3d 24 fa a7 be
       -0.28821906 0.45684335 0.033143125 -0.3280803
000240 c9 c1 12 3e 5d e6 63 3f 68 25 d1 be c2 48 23 3b
       0.14331736 0.8902338 -0.4084885 0.0024915193
000250 94 f5 9d be 3b f5 17 bf 47 32 e1 3e 9e 05 bf 3e
       -0.30851424 -0.59358567 0.4398367 0.37308973
000260 3c cd b8 3f 57 af c1 be 83 cd 6e bc e4 a8 0b 3f
       1.4437633 -0.37829086 -0.014575365 0.5455458
000270 c6 90 14 bf 34 c0 de be 4e 83 1a 3f 2a 4c d2 be
       -0.58033407 -0.43506014 0.60356605 -0.41073734
000280 ff 22 9a 3e 15 c1 97 be f2 5f f6 bd a0 eb 18 3f
       0.30104825 -0.29639497 -0.12030019 0.59734535
000290 e3 94 18 3d 33 da fc be 4c 18 f3 bd 8b de d0 3e
       0.037251364 -0.49385223 -0.11869869 0.40794787
0002a0 b7 3d e3 3c 64 2a 9c 3e 93 dc bd be aa d5 66 3e
       0.027739389 0.3050109 -0.37082347 0.22542444
0002b0 a8 f4 6d 3f 46 9b 8a bc dd e1 37 3e ce 1c ba 3e
       0.9295144 -0.016919743 0.17957254 0.363501
0002c0 c8 43 ad 3e 7c 88 48 3e 60 e5 51 bd a7 c4 94 3e
       0.33840775 0.19583315 -0.05124414 0.29056284
0002d0 04 08 bc bc 49 de dd 3d 14 2b 7a be c5 e7 51 3f
       -0.02295304 0.10833413 -0.24430496 0.8199428
0002e0 3a 4d a4 be 1c 8f 76 be 1b 4d ae 3e 23 74 a3 be
       -0.3209017 -0.2407803 0.34043202 -0.31924543
0002f0 eb aa a2 3e 39 83 2f 3f fc 46 dd be b9 27 8c be
       0.31771025 0.68559605 -0.4321822 -0.27374056
000300 ae 06 aa bd 4e d3 a4 3e 0c 76 ff 3b c7 e0 a5 3e
       -0.08302055 0.32192463 0.0077960547 0.32398054
000310 ef a3 2c 3d 91 39 1f bf e7 07 a7 3e b0 85 d2 3e
       0.042148527 -0.62197214 0.32623217 0.4111762
000320 dc d0 c6 3d d7 f6 99 3e aa 64 3a be 82 d9 db 3e
       0.097078055 0.30071136 -0.18202463 0.42939383
000330 f0 de 3c bf fc 2f 22 3f b6 c4 30 bf b0 1e de bd
       -0.73777676 0.6335447 -0.6905016 -0.10845697
000340 62 7a 8c 3e c8 44 f7 3e 65 a9 59 3e c6 da 8b 3e
       0.2743712 0.48294663 0.21256025 0.27315348
000350 c8 c8 1d bf 9a 9a d3 3e 89 aa dd 3e 3c a8 8c be
       -0.6163449 0.4132889 0.4329417 -0.27472103
000360 30 b6 cb 3f c3 83 b8 be 04 cc e2 be cb 34 a9 3e
       1.5914974 -0.36038026 -0.44296277 0.3304809
000370 cf bb c4 3e 8e 94 0a 3f 63 dd c4 3e 85 1f 32 bf
       0.38424537 0.54132926 0.38450155 -0.69579345
000380 de 8e 19 3f 35 c6 bf be 0f ab 86 be d6 4e a4 3e
       0.59983623 -0.37455907 -0.26302382 0.32091397
000390 a2 14 05 3f 95 d6 8f be 9b 3a c3 3e 7c 51 6d 3d
       0.5198461 -0.280934 0.3813065 0.057939038
0003a0 7f 22 c4 3e f8 91 ab 3e bd 60 98 3e 6f 26 12 3f
       0.38307568 0.33509803 0.29761305 0.57089895
0003b0 71 8b 1e 3f e3 2c 0b be cb 7e a1 3c 93 66 71 3e
       0.6193152 -0.13591342 0.01971378 0.23574285
0003c0 7e 63 51 3e e0 a5 31 3e b2 8d 22 3c 30 10 e7 3d
       0.2044811 0.17348433 0.009921478 0.112823844
0003d0 83 7c 58 be ec 5b b3 3e 5c a0 e9 be 0e b0 b8 3e
       -0.21141247 0.35031068 -0.45630157 0.3607182
0003e0 8b ba 81 3e 7d da 22 3f 98 45 15 3f 5c 77 c0 3e
       0.25337633 0.63614637 0.58309317 0.37591064
0003f0 7e 79 b0 3e cf 84 a1 3e ff ff 0f 3f c3 55 07 3e
       0.3446769 0.31546637 0.56249994 0.13216309

B0__72 f4 [1, 512]
000000 39 1b 87 be 36 7c 0a be 15 3e d5 be 78 e5 fd be
       -0.26387957 -0.13523945 -0.41648927 -0.49589133
000010 a2 2d 3b be 45 98 d5 be 59 63 24 bd 0d a5 84 be
       -0.18279126 -0.41717735 -0.040133808 -0.25907174
000020 3b 8a 94 be 27 eb c2 be 1b c4 7e bd 96 f1 48 be
       -0.2901171 -0.38070032 -0.06219874 -0.19623408
000030 d9 57 49 be 0a 2a 42 be e2 1d 49 bf 62 b4 18 bf
       -0.19662417 -0.18961349 -0.7856122 -0.5965024
000040 0f b1 47 be df 6c d5 be 74 e7 72 be 32 09 d7 be
       -0.19501136 -0.41684625 -0.23721105 -0.41999203
000050 50 1c d4 3d 84 53 12 bf a7 35 fa bd 23 62 e6 be
       0.10356963 -0.57158685 -0.122172646 -0.44996747
000060 cd c9 de 3e 55 0e 8c be d6 c4 fa be 9d 5b aa be
       0.43513337 -0.27354684 -0.489783 -0.3327302
000070 ca 9d 91 3e 25 62 44 bd 97 9e c2 be 76 dc 61 3d
       0.28440696 -0.04794516 -0.3801162 0.05514189
000080 dc 45 38 be a6 8d fd 3d 10 7e a0 3d ab af df be
       -0.17995399 0.12380533 0.078365445 -0.43688712
000090 00 da e1 3d 46 cb 88 3d 3a 8c b9 be d7 9b 5c be
       0.11027908 0.06679396 -0.36239797 -0.21543823
0000a0 b5 61 a0 be 98 fd a9 3d 9e 85 85 3e 99 0e 0e 3f
       -0.31324545 0.08300322 0.26078504 0.55491024
0000b0 bc 6a cd 3b 22 55 5c be 7e d1 9e 3e 48 9c 2e be
       0.0062688272 -0.2151685 0.31019205 -0.17051804
0000c0 5b 7a 11 bf 57 ea 2c be 89 6b 11 bf 37 8f b9 3d
       -0.56827325 -0.16886269 -0.5680471 0.09060519
0000d0 4e 1e 9b be 4d ec ac bd 73 77 cf 3c 89 b9 33 bf
       -0.30296558 -0.08443508 0.025325513 -0.7020498
0000e0 09 3b 1f bf 59 8a 2c bf f3 1e 59 3e b3 10 99 be
       -0.62199455 -0.673986 0.21203212 -0.29895553
0000f0 29 19 2b bf da d8 36 be b3 a9 1b bf 4a 7f c2 bd
       -0.66835266 -0.1785616 -0.60805815 -0.09496935
000100 4c da 5e bd 97 40 1f 3e 6c ab c6 3e 16 47 57 be
       -0.054407403 0.15551983 0.3880266 -0.21023211
000110 3d 84 02 3e f5 a6 fd bd 86 2d 02 be 74 c8 b5 bc
       0.12745757 -0.1238536 -0.12712678 -0.02219031
000120 fa 64 2c bc 89 f8 6a be c9 54 6a 3c c4 ce 92 bd
       -0.010522122 -0.22946371 0.014302441 -0.07168344
000130 dd f6 2a 3d 20 f9 0f be 43 dd 9d 3c 32 99 ad bd
       0.041739333 -0.14059877 0.019270545 -0.08476485
000140 cd 37 0d 3e a4 7f a1 3d a0 d0 93 bd 0c f0 f2 3c
       0.13790818 0.07885674 -0.072175264 0.029655479
000150 21 5d 2d bc 7b a4 e9 3a 96 4a 94 3d 68 6b ab 3c
       -0.010581286 0.0017825508 0.07240789 0.020925239
000160 9f 00 79 3e 5a cd 6b be 9b 92 a2 bd 01 97 c9 bd
       0.24316643 -0.23027554 -0.07938119 -0.09843255
000170 56 92 ae 3d ad e9 2a 3e 77 50 dc bd 38 38 a4 3e
       0.08524005 0.16690703 -0.10757535 0.32074142
000180 37 63 d1 bd 65 ea 08 3d 33 9a 36 3e ec bf 72 3e
       -0.10224002 0.03342666 0.1783226 0.23706025
000190 f8 f1 12 bd 34 f0 d1 3b 9d d0 b2 be 30 e3 64 bd
       -0.03587529 0.0064068083 -0.34924784 -0.055880725
0001a0 8c e4 29 3e 60 52 a3 3d 17 60 1f 3c d1 ca c4 3e
       0.1659109 0.07974696 0.009727499 0.38435987
0001b0 ac 7c 74 bb f4 3f d4 3d f4 21 ba 3e d0 b6 2c 3e
       -0.0037305756 0.103637606 0.3635403 0.16866612
0001c0 73 b1 96 3d dd 6d 85 3d 87 62 49 be a2 38 43 3e
       0.073580645 0.065150954 -0.19666491 0.19064572
0001d0 42 37 a9 be a1 e9 30 bb d3 79 61 3e ff ca 6b 3e
       -0.3304997 -0.0026994722 0.22019129 0.23026656
0001e0 44 fe 9b bc ff 96 76 3e 5f b1 f9 3d 65 c8 06 be
       -0.019042142 0.24081038 0.12192034 -0.13162382
0001f0 ce e3 62 bd 8e c2 b2 3d 15 26 cc 3d 01 37 75 3d
       -0.055393033 0.087285146 0.09968201 0.05986691
000200 37 c2 90 3f de 40 9a 3f 4c 6f c8 3f e0 a3 7f 3f
       1.130927 1.2051046 1.5658965 0.9985943
000210 78 4d 99 3f ea c7 73 3f f4 73 28 3f 89 29 95 3f
       1.1976767 0.9522692 0.6580193 1.16533
000220 23 d5 48 3f c4 5a 82 3f a7 39 6f 3f 05 16 66 3f
       0.7845022 1.018395 0.93447345 0.8987735
000230 91 59 7a 3f 5f fe 5f 3f 38 d3 b6 3f 6d e6 ab 3f
       0.9779292 0.87497514 1.4283209 1.3429695
000240 d4 cc 56 3f c1 b1 8d 3f e8 74 77 3f 8f b6 8e 3f
       0.8390629 1.1069871 0.9666276 1.1149462
000250 7d 35 36 3f ed ed 98 3f 66 0c 9f 3f e1 62 72 3f
       0.71175367 1.1947609 1.2425659 0.9468213
000260 e0 d1 cd 3e 1b de 5c 3f ad 8d 82 3f ed c2 6e 3f
       0.40199184 0.86276406 1.0199486 0.93266183
000270 c4 80 54 3f 8c bc d3 3e 28 5f 8d 3f e1 5c 2a 3f
       0.8300898 0.41354787 1.1044664 0.6654797
000280 b6 b2 60 3f b1 31 31 3f 2b 57 69 3f 4d e1 af 3f
       0.8777269 0.6921645 0.9114863 1.3740631
000290 2b bf 42 3f cd b7 69 3f 7c 45 90 3f 1e 7b 2c 3f
       0.7607295 0.9129608 1.1271205 0.6737536
0002a0 a3 7b 82 3f 15 b6 0c 3f 5f ae 3f 3f 9c 09 85 3f
       1.0193981 0.54965335 0.74875444 1.0393558
0002b0 82 e4 3f 3f 6d b8 88 3f 9d 25 96 3f e9 fe 73 3f
       0.7495805 1.0681282 1.1730229 0.9531084
0002c0 9e 73 90 3f aa 17 80 3f ae 53 94 3f 42 5b 3a 3f
       1.1285284 1.0007222 1.1588037 0.727955
0002d0 bc 07 8a 3f fe 8a 6f 3f b7 03 4b 3f af 20 b6 3f
       1.078361 0.9357146 0.79302543 1.4228724
0002e0 ee 4b 7d 3f 04 b4 a0 3f 71 31 aa 3e c8 eb 6c 3f
       0.98943985 1.2554936 0.33240846 0.92547274
0002f0 bd 13 6e 3f 17 52 a5 3f 2a 32 b5 3f a6 6c 5f 3f
       0.9299887 1.2915677 1.4155934 0.8727516
000300 00 79 92 bd 45 f1 00 3c 91 99 ec bd ef 48 9a 3c
       -0.07151985 0.007870023 -0.11552728 0.018833606
000310 c7 71 a5 bd ce 1b 03 3d 3f b4 0b be 2c 44 4b 3d
       -0.08078342 0.03200894 -0.13642977 0.04962556
000320 ce b7 b4 3e 9a a4 28 bc 9e 1a 47 3d a6 77 ba bd
       0.35296482 -0.01029315 0.04860937 -0.091048524
000330 c6 09 01 bd 42 ce 25 be bb 20 8a 3d ce b5 e0 3d
       -0.03150346 -0.16191962 0.06744524 0.109721765
000340 e8 c7 e3 3d 3e 09 b7 3d f0 6e a8 3b 26 81 1a be
       0.111221135 0.0893731 0.005140178 -0.15088329
000350 a9 0a 89 3e 0d f6 3b 3e ef a9 66 bd 8c aa 8c 3e
       0.26765946 0.1835558 -0.056314405 0.27473867
000360 cc 8c 8a bd 6a 55 b5 3d 0c 2c a7 bd 84 59 49 3c
       -0.06765136 0.08854182 -0.08162698 0.012289409
000370 a5 71 1b be 82 39 b4 3e a5 1a 02 be 9b a3 76 be
       -0.1518007 0.35200125 -0.12705477 -0.24085848
000380 ab a2 0b be c7 f1 42 3d 5c 82 f6 bd e0 22 f6 3d
       -0.13636272 0.047593858 -0.12036583 0.12018371
000390 88 14 c1 bd 98 86 b5 bc a8 89 d8 3c aa d1 2d bd
       -0.09427744 -0.022158906 0.026432827 -0.04243628
0003a0 1b 73 a5 be cf b7 cf bc 82 84 99 3d a3 1d be be
       -0.3231438 -0.025356201 0.07495977 -0.37131986
0003b0 1d 7a 8f be 06 b4 50 3d d4 23 f1 be 28 df 76 bd
       -0.28022853 0.050952934 -0.47097647 -0.060271412
0003c0 69 a6 b9 3c 81 51 1c bd 11 35 0a be 0e 83 a5 be
       0.022662358 -0.038163666 -0.13496806 -0.3232655
0003d0 4b 7b 9a 3b 84 73 d8 bd 48 26 16 3e a2 ba bd bd
       0.0047144047 -0.10568908 0.1466304 -0.09264113
0003e0 8c b4 73 be 9a 33 bb 3d c0 7d 05 bd 93 82 b3 bc
       -0.23799342 0.091407016 -0.032590628 -0.021912849
0003f0 bd 03 49 be e4 89 8a bd 67 b0 0c 3d 66 a2 cb 3c
       -0.19630332 -0.06764582 0.034347918 0.024857711

W0__99 f4 [1, 256, 64]
000000 ce 6f 1d be 88 db 9d 3d 90 64 1b 3f b6 cf 9c be
       -0.15374681 0.07707888 0.6070032 -0.3062722
000010 31 20 94 3e b9 84 5d be 5e 47 c8 be 1e a7 d9 3d
       0.2893081 -0.21632661 -0.3911695 0.10627578
000020 6a 97 85 bf 9b 24 2d 3e 99 8f 36 3d de 45 e5 3e
       -1.0436833 0.16908495 0.04457054 0.44779867
000030 79 f1 f9 3c 66 97 44 3e ca ee 8b 3e 56 f8 61 3b
       0.030510651 0.19198379 0.2733062 0.0034480295
000040 cb 9a bc be 23 83 b0 3e 49 99 f1 be 22 e6 e8 be
       -0.36836848 0.3447505 -0.4718726 -0.45488077
000050 3a e5 06 3f b3 e5 0b bf d1 77 ab 3d 56 ac 22 bf
       0.5269352 -0.5464737 0.083724625 -0.63544214
000060 b7 61 08 bf 15 9d fc 3e 8c b8 7d bc 55 fe 0c be
       -0.532741 0.49338594 -0.015485894 -0.13768895
000070 22 06 ab 3e c4 c0 01 c0 26 93 e5 3d 53 1f 25 3e
       0.33403116 -2.0273905 0.11209707 0.1612523
000080 09 41 a1 bc dd de f2 3e 4e c2 2d 3f a4 16 9c be
       -0.019684331 0.47435656 0.6787461 -0.30486023
000090 b9 6d c0 3d 21 a1 b6 be 23 51 0c 3e 43 06 00 bc
       0.09395928 -0.35669807 0.13702826 -0.007813993
0000a0 dd 31 c4 3d 0b 15 df be 02 c5 95 be 0f 35 df 3e
       0.09579823 -0.43570742 -0.29251868 0.43595168
0000b0 15 fe 00 3f de 38 a7 bd 3e 1e 1c 3f 5b b2 f7 be
       0.503877 -0.081651434 0.60983646 -0.48378262
0000c0 14 c9 9a be 9e 7a 75 3e 97 07 34 3f b5 81 0d 3f
       -0.30231535 0.23972556 0.7032408 0.5527604
0000d0 0b f9 69 3e ec 23 1f 3f 4a 74 73 3e 61 a2 5a be
       0.22848909 0.6216419 0.2377483 -0.21351005
0000e0 e5 e2 61 3f 59 4b 56 3d ad bf 2a be 8f 4d 2c be
       0.8823684 0.05231795 -0.16674681 -0.16826461
0000f0 c6 ee e2 3d c5 bf c4 3e e1 21 0b be b5 b2 90 3b
       0.11080699 0.3842756 -0.13587143 0.004415835
000100 84 2f 60 bd 04 e0 c2 3e 49 31 b3 3e c1 af cf bd
       -0.054732814 0.38061535 0.3499854 -0.10140944
000110 ca 17 85 3c 4c c2 ae be f0 36 b2 be b1 4e 9e bd
       0.016246695 -0.34132612 -0.3480754 -0.07729853
000120 25 33 13 3e 92 b7 ec 3d 58 25 fe bd 29 ed f7 bc
       0.14374979 0.11558451 -0.124094665 -0.030264454
000130 f4 a2 4c 3e 76 06 25 3f 39 e2 fb be b6 bf 84 3e
       0.19984037 0.64462984 -0.49196032 0.25927514
000140 22 69 02 be 4c 45 65 be 1d 3a 81 be da c5 27 3e
       -0.12735417 -0.22389716 -0.2523965 0.16384068
000150 d9 8e 80 bf 5c f9 86 be 1f f1 c3 3d 45 fa 14 be
       -1.0043594 -0.2636212 0.095674746 -0.14548595
000160 b1 cf 42 3f d5 37 d1 be db 34 3d be a5 f4 d2 3d
       0.7609816 -0.4086291 -0.18477194 0.103005685
000170 c0 59 18 be 0f 4a ae 3e 56 75 be be 88 a1 84 3d
       -0.14877987 0.34040877 -0.37198895 0.06476122
000180 e0 db 2f 3e 37 63 95 be 24 2a 36 3e 8f dc 8b 3d
       0.1717372 -0.29177257 0.17789513 0.068291776
000190 11 50 15 3e da 16 36 bf 1c 76 c2 3e 98 3e d6 3d
       0.14581324 -0.7112862 0.37980735 0.104611576
0001a0 d8 c0 e1 3e 65 00 ef 3d 86 cd 85 3c 8e 18 16 3f
       0.4409244 0.11669997 0.016333353 0.5863122
0001b0 8f 93 6d 3e 27 41 90 be b3 9d f6 3e c6 b7 36 3f
       0.2320082 -0.28174707 0.4816719 0.71374166
0001c0 51 1a 11 3e 77 a4 8b 3e 9e 53 87 3e af 1d 05 3f
       0.14170195 0.27273914 0.26430982 0.5199842
0001d0 49 c0 90 bd 84 bf ab be ec a7 a8 bd f6 e1 fe bd
       -0.070679255 -0.33544552 -0.082351536 -0.124454424
0001e0 7c 73 58 3e d8 95 ab be bf f7 47 3e 9e 2c 49 be
       0.21137804 -0.3351276 0.19528101 -0.19645926
0001f0 5a 59 a6 3e a8 12 29 3f d9 35 f5 b9 49 5d 88 be
       0.32490045 0.6604409 -0.0004677016 -0.2663367
000200 ac 32 80 be eb 2d 38 3f 0a bc 03 3f 2f 8e cc be
       -0.2503866 0.71945065 0.514588 -0.39952227
000210 c3 99 05 3e 00 59 38 be b4 ef 05 3f fe 01 b0 be
       0.13046937 -0.18002701 0.5231888 -0.3437652
000220 be c0 ca be 69 6a 1b 3f 04 36 cd be 33 72 b5 be
       -0.39600176 0.60709244 -0.40080273 -0.3543869
000230 38 d2 88 3e 90 4f 0b 3e ff a3 9c 3e 75 21 1a bf
       0.26722884 0.1360457 0.3059387 -0.602073
000240 cd 43 03 bf bc 5d 9c 3e 29 bb 4f bf 62 79 6a be
       -0.5127533 0.30540264 -0.8114496 -0.22897866
000250 27 1c 3f bd 86 51 04 bf 4c a3 47 3e 3f 4a ea be
       -0.046657708 -0.51686895 0.19495887 -0.4575977
000260 f1 53 d8 bd e5 7f 57 bf 6e df 86 bc 44 94 c7 3e
       -0.105628856 -0.84179527 -0.016463961 0.38980305
000270 ec 09 61 3e 1e 00 fd bd 38 0e 18 3f ab 0e b1 3d
       0.21976441 -0.12353538 0.59396696 0.08645376
000280 95 2c 5a 3e bb ec ac bd dc 4e a0 3e ea 92 97 be
       0.21306069 -0.0844359 0.31310165 -0.29604274
000290 b4 e8 9a 3e 9a d3 87 be bf a6 95 be ce fb b1 3e
       0.30255663 -0.26528627 -0.2922878 0.34762424
0002a0 92 f7 2d 3e 41 5e 18 be b6 0c 91 be 34 d1 b5 3e
       0.16988972 -0.14879705 -0.2833001 0.35511172
0002b0 54 ab 0c 3f 86 3c 92 3d e5 f0 7f 3f 08 ea a8 3e
       0.54948926 0.0714045 0.9997695 0.32991052
0002c0 0a 19 4f be 17 c8 16 3e 4e 97 d4 3e 0c 55 1c 3f
       -0.20224395 0.14724766 0.41521686 0.6106727
0002d0 fd 61 3a 3f 18 ab 8d be 09 6b 12 3f 43 32 40 3e
       0.7280577 -0.27669597 0.5719457 0.18769173
0002e0 3e 5f 8f 3e 4b 7a b8 bd 65 81 d9 be e4 e4 a1 3e
       0.28002352 -0.090077005 -0.42481533 0.31619942
0002f0 71 15 32 bd 8a b5 c5 3e 39 80 67 be 0b 90 ef bd
       -0.04347748 0.38615066 -0.22607507 -0.11697396
000300 c0 7c 3b be 6b 1e 9f 3d bf fd 8c 3e 1f 9b a5 bb
       -0.18309307 0.07769474 0.27537343 -0.0050538923
000310 76 28 9c be c1 8e a9 be 5b 73 2c bf 1f cd 96 bd
       -0.3049962 -0.33116725 -0.6736352 -0.073633425
000320 e6 92 65 3e c5 95 d7 3e 27 e2 b6 3d fe 09 22 3f
       0.22419319 0.42106453 0.08929854 0.63296497
000330 6c 76 52 3f 99 b9 71 bd 13 93 15 3e f9 e1 a5 bd
       0.8221195 -0.05901489 0.14606886 -0.080997415
000340 49 d0 ae 3d c1 2e a1 3d 8a 5f 9d ba 46 c6 98 3d
       0.08535821 0.07870246 -0.0012006622 0.07459693
000350 56 8b d0 be c9 2f 93 bc d9 92 86 3e 4f c4 3a be
       -0.40731305 -0.017967122 0.2628391 -0.18238948
000360 5e e3 25 3f 69 47 7f 3e 5f ce 5b be 82 83 35 3e
       0.6480006 0.24929585 -0.21465443 0.17725947
000370 36 04 db ba 35 db 04 bf 1c 47 e0 3e 63 0d 0d be
       -0.0016709629 -0.51896983 0.43804252 -0.13774638
000380 8b e0 87 bd 49 f2 ad 3e 64 f2 68 3e 89 b7 ca be
       -0.06634625 0.3397391 0.22748715 -0.3959315
000390 63 63 18 be cb bf 27 be 17 58 2c 3c 54 85 b0 bd
       -0.14881663 -0.16381757 0.010519049 -0.0861918
0003a0 58 10 bf 3e ab d1 67 be c9 59 2b 3f 79 26 cb 3e
       0.37317157 -0.22638576 0.66933876 0.3967779
0003b0 4d d2 1a bd 71 fc c6 be 1b 6e 3a 3d 48 63 22 3f
       -0.037798215 -0.38864473 0.04551516 0.6343274
0003c0 83 ce f5 be f3 b3 b2 be 8e 73 c7 3d eb 6a 80 3c
       -0.48009118 -0.34902915 0.09738837 0.015675982
0003d0 91 de 47 bd 76 c2 92 be c3 6b 5f bd 4a d6 9b 3e
       -0.04879624 -0.28663987 -0.05454613 0.30436927
0003e0 b5 b9 a2 bd d4 80 b9 be ac 1e 17 3f 3d 1b d7 be
       -0.07945577 -0.362311 0.59031177 -0.4201297
0003f0 f0 e3 25 3e a0 c8 7f be c0 bd 17 be 92 e4 f3 3e
       0.16200233 -0.24978876 -0.14818478 0.47635323
